p2_traffic_sign_detection/traffic_sign_classifier_lenet_v3.onnx (onnx, 457797 bytes, 12 tensors)

sequential/dense_2/MatMul/ReadVariableOp:0 f4 [64, 7]
000000 1c 73 d0 be fc b9 27 3e 8c 24 7a be 94 d5 ca 3d
       -0.4071282 0.16379541 -0.24428004 0.09904018
000010 63 bb 99 be 18 42 c8 3c 41 e4 69 be 9e 83 ec bc
       -0.30025777 0.024445578 -0.22840978 -0.028871354
000020 60 b8 bb be bf 3f 14 3e 7d fc 72 be 33 21 0e 3e
       -0.36664104 0.14477442 -0.23729129 0.13879852
000030 c4 74 27 bf 54 ef ce 3b a0 f3 02 be 5f d0 85 3e
       -0.65412545 0.006315151 -0.12788248 0.26135537
000040 9e 0b 2c be 4c 8f 94 3e 3b 37 1b be bc 03 bf 3e
       -0.16801307 0.29015577 -0.15157788 0.37307537
000050 9e fa 35 bd d2 57 20 3c 21 04 d4 be f5 d1 74 3e
       -0.04442846 0.009786563 -0.414094 0.23908217
000060 8a d0 08 bf c5 fd 22 3e 07 d9 73 3e 56 34 7f 3d
       -0.53443205 0.15917118 0.23813258 0.06230577
000070 af 17 bf 3d 49 57 51 3d 61 d9 50 be 10 7f 8b 3e
       0.09330689 0.051108632 -0.20395423 0.27245378
000080 3d 0c 5d 3b aa cb 4e be 77 fe 6f 3e e3 86 9f be
       0.0033729218 -0.20194879 0.23436914 -0.31157598
000090 1d 14 84 bd 8c 89 1c 3d 18 cf 99 bd a2 9d f8 bd
       -0.06449149 0.038217112 -0.07510203 -0.12139441
0000a0 00 30 45 be 47 ae 81 bd 02 23 9c 3e e8 c2 ab be
       -0.19256592 -0.06332069 0.3049546 -0.3354714
0000b0 82 8b a8 bd 97 b0 55 be eb 69 49 3d ce 57 ef be
       -0.08229734 -0.20868145 0.049173277 -0.46746677
0000c0 6a e5 50 3e 97 65 5b 3c 6f cf cb 3d 15 ff d5 3d
       0.20400015 0.01339092 0.09951674 0.10449044
0000d0 fd 60 8f be 95 68 3d 3e 4e 08 a3 be 43 dc 95 3d
       -0.28003684 0.18496926 -0.31842273 0.07317402
0000e0 04 b3 ed 3c 81 71 31 3e d9 55 17 be 28 42 9a 3d
       0.029016025 0.17328455 -0.14778842 0.075321496
0000f0 d6 35 f9 be cd 8b a8 3e 24 25 15 be 7b 1c 3f 3e
       -0.48673886 0.3291916 -0.1456495 0.18663208
000100 5d b5 88 be 6c 57 22 3c 02 36 99 be 7f 1a aa 39
       -0.2670087 0.009908538 -0.29924017 0.00032444668
000110 d1 1e ef 3c dd b5 62 3e 09 64 bb 3d 2e 08 76 be
       0.0291895 0.22139688 0.091499396 -0.24026558
000120 24 b1 80 3e 75 00 0b bf 79 73 d5 3d 9c 33 d9 be
       0.25135148 -0.5429757 0.10422415 -0.42422187
000130 d4 88 29 3e 41 f4 2b 3e f6 ae d6 3d 63 4c d0 3d
       0.16556102 0.16792394 0.1048259 0.101708196
000140 7c 28 93 3e c1 ad 4b be 3c 03 a3 3e dc 1a ba bc
       0.28741825 -0.198905 0.31838405 -0.022717886
000150 53 f9 1b 3e 08 3d ee 3c 43 46 48 3d 48 42 0a 3d
       0.15231828 0.029081836 0.04889513 0.033754617
000160 3b 84 11 be d5 e4 3d be 49 84 ff 3d 40 84 93 be
       -0.14210598 -0.18544324 0.12476403 -0.28811836
000170 7d 88 d1 be 3c 03 f9 bd a2 3c 8b be 94 27 e5 3d
       -0.40924445 -0.1215882 -0.27194697 0.111891896
000180 4a 4b 88 bd 84 bc 63 bd 14 f2 e3 be bd 99 67 be
       -0.06654985 -0.055599704 -0.44520628 -0.2261724
000190 43 53 45 be 04 c5 d3 3d 9b 47 95 be f8 33 e6 3d
       -0.19270043 0.10340312 -0.29156193 0.11240381
0001a0 e0 4e 1e be 80 a7 18 be 2a 38 35 be bd ac 8a be
       -0.15459776 -0.14907646 -0.17697206 -0.27084914
0001b0 9a e7 07 3e af 25 06 bf c7 18 07 3f a1 7b ce bd
       0.13271943 -0.5240125 0.5277218 -0.10082174
0001c0 49 5d 92 3d f2 d9 6a 3e 2c 02 b2 3c 10 f3 35 3d
       0.07146699 0.22934702 0.021729551 0.044421256
0001d0 c8 3d 09 3d b1 74 ff 3d bd 4e b2 be 5d 28 65 be
       0.033506185 0.12473429 -0.34825698 -0.22378679
0001e0 3a 50 00 be eb 56 e9 3d ce c4 49 3e 1e c3 f0 bc
       -0.12530604 0.113935314 0.19703981 -0.029389914
0001f0 f6 2a 3c 3c dc 45 47 3d 4b c2 11 3e b2 f5 ca 3c
       0.011484852 0.048650607 0.14234273 0.02477536
000200 e2 cc 2f 3d cc 0f 80 be 1a ae 3a be 2a 15 32 be
       0.04292 -0.25012052 -0.18230477 -0.17390886
000210 c6 5b 6c be 57 de 84 be 10 6c f7 bd 58 6a eb 3b
       -0.23081884 -0.25950882 -0.12081158 0.007184308
000220 a0 6d 1f bd bd f4 71 be de 61 10 be d8 29 65 be
       -0.038922906 -0.23628516 -0.14099833 -0.22379243
000230 f9 a5 06 be 6c cb 6e be a6 0c e3 3c 80 67 05 3e
       -0.13149251 -0.23319787 0.027715992 0.13027763
000240 78 b2 66 3c e5 b8 37 bb 19 0b bd 3d 90 73 38 be
       0.014080636 -0.002803379 0.09230632 -0.18012834
000250 4f a0 cc 3c 29 c3 ab be d2 9e 6a be c6 05 dd be
       0.024978785 -0.33547333 -0.22912148 -0.43168467
000260 a6 db 1a bd 02 b8 05 bd 71 eb fe bd 0a 62 46 3e
       -0.03780713 -0.032646187 -0.12447251 0.19373336
000270 0e 8d 25 3e 1b 8e 03 3e 0d b0 0c 3e 7d fa 1f 3e
       0.1616709 0.12847178 0.13739033 0.15622897
000280 34 23 b3 3c 57 91 a1 bd 12 51 82 3e 43 09 9f 3d
       0.021867372 -0.078890495 0.25452477 0.077654384
000290 e5 3e 98 3e da 79 c5 3d 82 ed 82 3e 83 3f 36 bf
       0.29735485 0.09642382 0.2557183 -0.7119066
0002a0 bc 45 fc 3b e2 bd 54 be 25 32 98 be 51 8b f7 3c
       0.0076987427 -0.2077556 -0.29725757 0.030217798
0002b0 22 95 58 bd 1b 26 2d bd 4e ce 9b be 6e c4 6a 3c
       -0.0528766 -0.04227267 -0.30430835 0.014329059
0002c0 b2 d8 9d bc 6d 0f a5 bb 9f e6 e6 bd 1d 51 21 3e
       -0.019268367 -0.0050372393 -0.11274456 0.15753599
0002d0 7d 79 0d bf 0f 82 bf 3d ec 3c 03 3e 46 02 93 3e
       -0.552635 0.093509786 0.12816209 0.28712672
0002e0 13 11 b2 be 66 a9 ac 3e d2 24 b8 be fc be a1 3e
       -0.34778652 0.3372299 -0.35965592 0.31591022
0002f0 ef ca 02 3e 27 e6 b1 3d ed 1c 52 3d c6 ba bb be
       0.12772726 0.08686476 0.051297117 -0.36665934
000300 9e aa c5 3d 4a a6 8a be 16 9c 65 3e e7 f6 7a be
       0.09651683 -0.27079993 0.22422823 -0.24508248
000310 10 57 f4 bd fa c1 37 3d 71 03 59 3e de 05 fc be
       -0.11930668 0.044862725 0.21192719 -0.49223226
000320 f4 64 24 3e 4d bc 39 3d fc 5c 33 3e d1 11 1b 3e
       0.16054136 0.045345593 0.1751594 0.15143515
000330 9c ea 67 be 37 d9 84 3d 76 e4 3e 3d aa 85 1e 3e
       -0.2264809 0.06486743 0.046604596 0.15480676
000340 28 fc aa 3e 12 82 c2 be 1f b6 c9 bd 06 e4 9a 3e
       0.33395505 -0.3798986 -0.0984919 0.30252093
000350 35 45 b6 bb 74 8b 8b 3e 94 51 8b be cf 28 62 3b
       -0.0055624493 0.27254832 -0.27210677 0.0034509187
000360 85 da ed bc 44 57 a6 bd ac b5 11 3e d3 f1 63 be
       -0.029034862 -0.08122113 0.14229459 -0.22260217
000370 8b 3e 58 3e 86 73 4e 39 00 59 78 3e af e7 1e 3e
       0.21117608 0.00019688727 0.24252701 0.15518068
000380 d0 a8 9e 3d 80 74 92 3e 70 71 63 3d 41 b7 8a be
       0.07747042 0.28604507 0.055528104 -0.27092937
000390 2a 4e 7e 3d a1 4f 8e be 19 be 2a be 58 81 fb 3c
       0.06208626 -0.27795127 -0.16674079 0.030701324
0003a0 4e ae f0 bc 82 69 63 3e 10 9a 92 bd 97 14 1b bd
       -0.02937999 0.22208217 -0.07158291 -0.037861433
0003b0 e5 45 2f bd 2e d7 de 3d e5 18 b7 3d e5 2d 28 be
       -0.042791266 0.10880886 0.08940295 -0.16423757
0003c0 f0 a9 91 3d f5 6d 8e 3e 3c 00 c3 3d 55 b0 1f 3e
       0.07112491 0.27818266 0.09521529 0.15594609
0003d0 4c ee 81 3c 31 f5 55 3d 58 2f 1c 3e 8f 06 31 be
       0.0158607 0.052235786 0.15252435 -0.17287658
0003e0 c7 55 5b bd d9 76 2a be 58 14 8a 3d 7d 52 27 bf
       -0.0535486 -0.166469 0.067421615 -0.6536024
0003f0 7a 44 9f 3d d2 4a 20 be df 2a 59 3e e2 04 de bd
       0.07776733 -0.15653542 0.2120776 -0.10840775

sequential/dense_2/BiasAdd/ReadVariableOp:0 f4 [7]
000000 c1 18 17 3e cd 02 49 bd b3 aa b8 bd dd 84 89 bd
       0.14755537 -0.049074937 -0.09016933 -0.06714795
000010 34 e4 6f bd 4d 91 95 3e 76 04 76 be
       -0.05856724 0.29212418 -0.24025139

sequential/dense_1/MatMul/ReadVariableOp:0 f4 [128, 64]
000000 65 71 84 3d f8 95 5c bd f1 98 d7 3c 56 ef 07 bd
       0.06466941 -0.05385396 0.026318045 -0.033187233
000010 e8 79 ff 3d 2b 16 d5 bc 64 0d 07 3e 07 d4 a5 3d
       0.12474424 -0.026011547 0.13188702 0.08097082
000020 de 9c 37 3e c8 f4 68 3d b8 ef bb bd 01 09 18 3e
       0.17930934 0.056874067 -0.09176582 0.14847185
000030 e8 48 2e 3e 0d 60 19 be b0 73 40 3d 5b b6 34 be
       0.17019999 -0.14978047 0.04698533 -0.17647688
000040 f2 af c3 3d de 8d 2b be a8 e7 6c 3d 5c ac 0d 3e
       0.09555043 -0.16753337 0.057838112 0.13835281
000050 70 65 a3 bd 09 f6 1d be 89 2a 07 be 8b 49 46 3e
       -0.07978332 -0.15425886 -0.1319982 0.19363992
000060 4f 85 8e bc ec 5d 24 be ec 92 ff bc 1b 9a 0e 3e
       -0.01739755 -0.16051453 -0.031197987 0.13925974
000070 05 0c 8c bd 4c 64 b6 bd 8e 41 fb 3d 31 89 ef bc
       -0.0683823 -0.08905849 0.12268363 -0.029240223
000080 23 22 01 3e 23 6a 21 bd 8b 90 02 3e eb ff e9 3c
       0.12610678 -0.03940786 0.12750451 0.028564414
000090 78 6e 94 bd 43 05 07 be 6c e2 c1 3d 2e b6 44 3d
       -0.07247633 -0.13185601 0.09467015 0.048025303
0000a0 b4 37 08 be 85 4c 11 be 61 a0 ec bc ec d6 02 bd
       -0.13302499 -0.14189346 -0.028885068 -0.031943247
0000b0 68 3e c7 be b9 78 36 3d f1 0c 7d 3e c0 93 b3 3d
       -0.389148 0.044548724 0.24711968 0.087684155
0000c0 ba d5 89 3d 1a 2f 2f 3d 29 e6 a7 3d cf 43 02 be
       0.06730218 0.04276953 0.081981964 -0.1272118
0000d0 aa ce 96 3d fb ec 55 bd c8 a2 69 3d 40 02 65 bd
       0.07363637 -0.052227955 0.057040006 -0.05591035
0000e0 d9 de cb bd 8e 27 9d 3d e6 6c b2 bd 10 a5 97 bc
       -0.09954614 0.0767356 -0.08712177 -0.018511325
0000f0 7c 87 9b bd 99 97 1a 3e 6e fa d6 bd 8e 9c 33 3d
       -0.07594201 0.15096892 -0.104969844 0.043850474
000100 c5 d3 0b be 58 fd 73 bd d9 8d 27 3d de 67 9d bc
       -0.13655002 -0.05956778 0.04090676 -0.019214567
000110 9f 22 83 3e 1d 12 5e be 51 af 2d 3e 54 dc 65 bc
       0.2561235 -0.21686597 0.16961409 -0.014029581
000120 db 92 40 be aa 7c 5c 3e ac fa 99 bd d7 e5 8e 3e
       -0.18806021 0.2153193 -0.07518515 0.2790973
000130 9f 22 21 3d 49 35 f6 bb 57 bd c6 3d 07 bd 34 3e
       0.039339658 -0.0075136763 0.097040825 0.17650233
000140 1b e8 8c 3d d6 74 28 be 00 de 3f be 7c 01 c1 bd
       0.06880208 -0.1645082 -0.1873703 -0.09424111
000150 9a 12 5a 3c 93 ae 6f be 8f fb 41 be 57 c4 b4 bd
       0.013310099 -0.23406439 -0.18943618 -0.08826511
000160 c2 08 07 3e 17 80 9f 3d 47 06 33 3d 0b 25 44 3e
       0.13186935 0.07788103 0.04370716 0.19154756
000170 f6 3e 2a be bd 00 74 3e ba 91 c9 3c fd d4 14 3e
       -0.1662558 0.23828407 0.02460562 0.14534374
000180 9d 8a 37 be e0 f8 b0 be 68 c2 79 3e ec 9d 28 3e
       -0.1792397 -0.34564877 0.24390566 0.16466492
000190 b1 dc bd bc ee be dc bc f2 80 1e be 34 5e 82 bc
       -0.023176523 -0.026946511 -0.15478876 -0.01591406
0001a0 7f a9 94 3e dc 7d 22 3d 84 da 0c be fc 59 a7 3d
       0.29035565 0.03967081 -0.13755232 0.0817146
0001b0 38 86 86 bd 4f 38 51 bd c7 cb 8c 3c f9 08 9c bc
       -0.06568569 -0.05107909 0.017187012 -0.019047247
0001c0 aa ab 52 3e 91 fe d3 bd 66 0a 9c bd 10 55 1e 3e
       0.20573297 -0.10351289 -0.07619171 0.15462136
0001d0 de a6 81 bd 0b e6 23 3d b7 13 26 be b9 8e a2 bb
       -0.063306555 0.040014308 -0.16218458 -0.0049608615
0001e0 f6 4b 2f 3d ae a3 dc bc 31 dc 6f bd 97 79 bf 3d
       0.04279705 -0.026933517 -0.0585596 0.09349363
0001f0 2b 84 56 3d 90 1b b5 bd 17 b9 fa 3d f3 83 3e 3e
       0.05237214 -0.08843148 0.12242334 0.18605022
000200 cb b2 9b 3d cb 1e 19 3d a4 b3 98 bc 2a 1c 98 3e
       0.076024614 0.037382882 -0.018640347 0.29708987
000210 ff 7c e3 bd af 91 b4 bd 06 41 08 3e 64 f1 23 3d
       -0.111078255 -0.088168494 0.13306054 0.04002513
000220 86 07 1b 3d c2 3f 72 bb d6 8d 71 3e 1a 53 18 3e
       0.03784897 -0.0036964272 0.23589262 0.1487545
000230 e9 ff 3f bd ca 74 50 bc e6 66 8e ba 7e be 06 3e
       -0.046874914 -0.012723157 -0.0010864406 0.13158605
000240 a1 34 31 bd 32 b1 f2 3d 3d 78 7f 3e 5c dd 0b bd
       -0.04326308 0.118502036 0.24948211 -0.03414665
000250 59 74 a0 3d aa 5e 7e 3d ca 3d 55 bd b0 d9 20 3e
       0.078346916 0.062101997 -0.05206088 0.15708041
000260 b7 0f 25 3e 87 36 d3 bd 1f 3d a8 bd ee 32 66 3e
       0.16119276 -0.10313135 -0.08214783 0.22480366
000270 3d c6 a1 3d 16 8f 35 3e d6 a8 38 bc de e2 05 3e
       0.07899139 0.17730364 -0.011270722 0.13074824
000280 3d b1 62 bd 06 74 af 3d 89 8b a4 3e ce 8b 88 bd
       -0.05534481 0.085670516 0.32137707 -0.06667291
000290 c0 b3 1a 3d 74 d8 e4 3d 8a f6 5f 3d d2 c9 15 3e
       0.03776908 0.11174098 0.054678477 0.1462777
0002a0 fe 0a 83 3d 8c c0 57 bd a2 44 3c 3e 22 0e 80 3d
       0.06398581 -0.05267386 0.18385556 0.062526956
0002b0 f7 3c 48 3e 97 c8 11 3b 86 5d b0 3d 61 64 b0 3d
       0.19554506 0.0022244805 0.08611588 0.08612896
0002c0 67 b5 97 3d 6a 11 5d 3e a4 6a 9f bd 0e 9c 31 bd
       0.074076466 0.21588674 -0.07784012 -0.043361716
0002d0 ff b3 11 3d e8 5e d6 bc 6c 4e 19 be a6 a4 b8 bd
       0.03557205 -0.026168302 -0.14971322 -0.09015779
0002e0 73 fa 77 3d 93 e1 67 bd 04 fa 87 3e 55 b2 bb 3d
       0.06054158 -0.05661161 0.26557934 0.091648735
0002f0 d6 5c 4d 3e f5 ac cc 3d d2 f0 1d be 63 78 c1 3c
       0.20054945 0.099939264 -0.15423897 0.023616975
000300 be e4 90 3d ec a8 60 bc 6e 3c 1c 3e 68 b1 43 3e
       0.07074879 -0.013712149 0.15257427 0.19110644
000310 93 fb ca 3d e2 2b 2a 3e 2a f1 3d be f2 17 b8 3d
       0.09911265 0.16618302 -0.18549028 0.08988942
000320 1a d6 d0 3d f6 18 a2 be c4 14 5a 3d 9f ac 89 3d
       0.10197087 -0.3165967 0.05324246 0.06722378
000330 b8 ca 66 be e4 63 b6 bc cd 83 54 3e 71 07 99 3c
       -0.22538269 -0.022264428 0.20753403 0.018680306
000340 5a df 2b bd 49 30 bc bd 5b 59 b2 3d 3d 2d 89 bd
       -0.04196105 -0.09188897 0.087084495 -0.06698082
000350 9c 83 96 bc b4 a1 2e be 0f 1c 40 bd e2 a4 af 3e
       -0.018373303 -0.17053872 -0.04690176 0.34305483
000360 ff 26 83 bc 29 39 0a 3e 6b d5 5e bc 23 54 93 3c
       -0.016009806 0.13498367 -0.0136006875 0.017984455
000370 d2 e6 44 3e 7f 09 87 3b 85 eb 99 bd 18 d2 96 bd
       0.19228676 0.004121005 -0.07515625 -0.07364291
000380 d4 a6 28 be 67 1e 1a bd d6 a5 2a 3e 0f 44 ee 3d
       -0.1646989 -0.03762665 0.16664824 0.11634075
000390 a9 2e 03 be ec f0 d9 bd 0d 09 cd bd 9d b0 ac bb
       -0.12810768 -0.10641655 -0.10011492 -0.0052700774
0003a0 54 30 3b 38 2f 8a 99 bc 76 fb 9a bd 18 ea 61 3e
       4.4629283e-05 -0.018742649 -0.075674936 0.22061956
0003b0 bc aa bb 3d 2c cd 97 3d 1b c7 9b 3d 12 ee 81 be
       0.091634244 0.0741218 0.07606336 -0.25376946
0003c0 c6 2a e9 bd 03 a4 ee bd 6f 65 a1 be a7 67 63 3c
       -0.113851115 -0.116523765 -0.315227 0.013879693
0003d0 89 6c 22 be 4c 34 36 3e f6 27 fb 3c 1a b0 8d 3e
       -0.15861715 0.17793387 0.030658703 0.27673417
0003e0 59 10 5e 3e 73 60 89 3d 1a d8 ec bd 16 0d fa 3d
       0.21685924 0.06707849 -0.115646556 0.12209527
0003f0 8a e6 49 be 9d 47 bc 3d 47 07 97 3c e1 ed fe 3d
       -0.1971685 0.09193347 0.018436087 0.124477156

sequential/dense_1/BiasAdd/ReadVariableOp:0 f4 [64]
000000 7e 88 18 3e c3 b4 95 3d 3b ea ad 3e 8a 6a a1 3e
       0.14895818 0.07309868 0.33967766 0.31526595
000010 4e 3f 2e bd 0a ac 8f bd 11 e1 32 3e a5 39 92 bd
       -0.04254084 -0.07015236 0.17468669 -0.07139901
000020 9c 49 d2 3e c8 58 67 3e cb 54 d5 3d a2 7e 91 3e
       0.41071784 0.22592461 0.104165636 0.28416926
000030 f8 e8 fa 3c 4e d8 4c bd 8e 9b 8f 3e ef 96 da 3e
       0.030628666 -0.05001097 0.28048366 0.42693278
000040 2f ef 8e 3e e1 1c 1d be 13 d5 4a 3e 34 36 b9 3c
       0.27916858 -0.15343048 0.19807844 0.022608854
000050 39 8a cd 3b 5c e0 6d 3e 80 f4 b0 3d 22 b4 72 3e
       0.006272581 0.23230118 0.08640385 0.23701528
000060 98 f6 c4 3e 7d 93 77 3c 69 a8 93 3e b2 a9 17 3f
       0.38469386 0.015110848 0.28839424 0.5924331
000070 a0 ce f8 3d 7c 81 e2 3e c2 4f de bb da 66 aa 3e
       0.121487856 0.44239414 -0.00678441 0.33281595
000080 ed 70 0c 3e f3 ac 01 3e 06 0f af 3e 2f e5 c6 3e
       0.13714953 0.12663631 0.3419115 0.38846728
000090 17 96 c3 3c 2d 0b 8f 3c cb b1 f5 3c 8b c3 9a 3e
       0.02387528 0.017461384 0.029992005 0.30227312
0000a0 5e 5b e4 3e f9 6e 57 bd 7e 07 02 be de ae 60 be
       0.44600958 -0.052596066 -0.1269817 -0.21941707
0000b0 d0 7a 94 3e d4 68 cf 3e 15 b0 32 3e ac 58 a4 bd
       0.28999949 0.40509665 0.17449982 -0.08024725
0000c0 10 b1 d0 bc 31 32 cd 3e da 75 9c bd d9 f8 14 3e
       -0.025475055 0.40077356 -0.07639666 0.14548053
0000d0 bf 2e 23 3d ec 9f b1 ba 54 11 ef bc 1c 99 46 3d
       0.039839502 -0.0013551689 -0.029183067 0.04848586
0000e0 42 53 65 3e ca ca 1b bd a7 81 c7 3d 32 bd 7a 3d
       0.22395042 -0.03803519 0.09741526 0.061215587
0000f0 d6 b7 9e 3e 99 40 2a 3e a5 70 59 bd b5 bd fa 3e
       0.3099963 0.16626205 -0.05308594 0.4897286

sequential/dense/MatMul/ReadVariableOp:0 f4 [48, 128]
000000 3f a4 85 bc d6 86 45 be fa d0 80 bd 36 03 0b 3c
       -0.01631367 -0.19289717 -0.06289859 0.008484652
000010 32 23 c7 3d 43 e1 b9 be b5 11 55 be 90 0c 94 3d
       0.0972351 -0.36304674 -0.20807536 0.072289586
000020 05 a9 aa be 3b 0e 72 be 7a c4 83 be 8e ba 7f 3e
       -0.33332077 -0.23638241 -0.25735837 0.24973509
000030 64 65 7e bd a2 10 0f bd ed ae 7b bc fe be 99 bc
       -0.062108412 -0.03492797 -0.01536153 -0.01876783
000040 6d 3b 5d be 1d 68 89 be 1f e7 47 3e fd 58 a6 bc
       -0.216047 -0.26837245 0.1952176 -0.020306105
000050 31 d9 8b 3c c3 be 1a 3e e8 60 6c be bc 05 56 bd
       0.017071338 0.15111832 -0.23083842 -0.052251562
000060 b4 f4 88 3e 01 bd d4 bd 6a 2c b8 3c ed e2 3a be
       0.26749194 -0.10387612 0.022482116 -0.18250628
000070 51 88 34 3e bb 03 21 bc 7d e9 f1 bd b1 a6 ad be
       0.17630126 -0.00982755 -0.118121125 -0.33916238
000080 d7 2b 07 3e 65 50 27 be 36 06 77 be 91 94 70 be
       0.13200317 -0.16339262 -0.24123463 -0.23494174
000090 aa c7 4f be 3c fb c3 be fc 1b ab be e4 fa 3c 3e
       -0.2029101 -0.38277614 -0.33419788 0.18455082
0000a0 c1 a5 ca 3d 18 7b 2f be de 40 03 be b5 d4 3a bd
       0.09894896 -0.171368 -0.12817714 -0.04561301
0000b0 ef e1 84 be 68 fd 90 be 1d 40 1b 3d 16 f6 b3 be
       -0.25953624 -0.28318334 0.03790294 -0.35148686
0000c0 3e 87 c2 bd 58 14 aa 3c 23 3a 83 bd e9 7d 00 be
       -0.09498452 0.020761654 -0.06407573 -0.12548031
0000d0 ab 0d 02 be 5e 98 b2 be 2d 1b d4 3c 67 ca 3e 3d
       -0.12700526 -0.34881872 0.025891865 0.046579745
0000e0 2e 2b aa be 29 42 42 3e e5 d5 06 3c 96 50 d0 be
       -0.33236068 0.1897055 0.008229707 -0.40686482
0000f0 4a b0 93 be 22 e0 61 be 56 84 9a 3b 9c 20 84 be
       -0.28845435 -0.22058156 0.0047154827 -0.2580613
000100 75 20 33 bd 16 99 1d be 9a 8d 59 be bc 58 99 3e
       -0.043732125 -0.15390429 -0.21245423 0.2995051
000110 49 17 71 3e b4 b9 34 bb 61 01 0c be 6d ce d0 bc
       0.23544039 -0.0027576508 -0.13672401 -0.025489056
000120 9f db 88 be 2d 69 86 3d 2b c0 c5 be 15 9a 4e be
       -0.26730058 0.065630294 -0.38623175 -0.20175965
000130 ce c7 77 be f0 b6 87 3e 9c 99 23 3d 29 97 25 3e
       -0.24197313 0.26506758 0.039941415 0.16170944
000140 62 7a 93 be 82 08 24 3d 27 1d 9c 3d 49 36 81 bd
       -0.28804308 0.040047176 0.07622748 -0.06309182
000150 74 f8 d0 3d c7 15 00 3d 0f 9b 6c 3d e0 88 81 3d
       0.10203639 0.03127077 0.057765063 0.06324935
000160 a1 71 c4 3c 6f e8 4a 3d 0b ba 53 bc 90 c6 80 3b
       0.023979964 0.049538072 -0.012922774 0.0039299205
000170 5d fe 02 be a7 39 b9 bc c9 c1 ab bd 8f 2a a2 bd
       -0.12792344 -0.022610499 -0.08386571 -0.07918274
000180 cb 90 5e bd f3 c5 d2 be 05 f5 81 be 66 4c 4b 3e
       -0.054337304 -0.41166648 -0.25382248 0.19853362
000190 4e 8f ea be 12 15 9b be ff ad 67 bd f9 bb 39 bc
       -0.45812458 -0.30289513 -0.05656242 -0.01133632
0001a0 05 64 8f 3d aa 00 36 bd 6b 6d 8c be de 9c 48 3c
       0.07001499 -0.044434227 -0.2742723 0.012244431
0001b0 91 40 93 3c 38 54 d1 bb a7 39 d9 bd ea de 9c bd
       0.017975124 -0.0063882135 -0.106066994 -0.07659705
0001c0 c1 03 8a be ae c4 08 3b 9e af d9 3d 86 fe 9f bc
       -0.2695599 0.0020869183 0.106291994 -0.019530546
0001d0 f4 1c 3e bd 22 d9 18 3d 96 a5 16 be a9 84 d3 3d
       -0.04641433 0.03731645 -0.14711604 0.10328037
0001e0 3e a1 bb 3d ca f9 a7 bc a3 f6 02 bd e1 2e e2 3b
       0.09161614 -0.02050485 -0.031973492 0.006902561
0001f0 06 eb 69 be 05 b0 27 3d a4 d8 19 be e8 6e 1c 3e
       -0.2284356 0.04093935 -0.15024048 0.15276682
000200 73 2b 2e 3d 3b 78 3a 3e 55 8b a7 3b 8e f9 6e be
       0.042521905 0.18209927 0.005113045 -0.23337385
000210 64 fa 81 bc 8e 04 3c 3d 8d 63 22 3e 7d 6b 8e bd
       -0.015866466 0.04590278 0.15858288 -0.069540955
000220 7f b2 9c bc f4 80 af 3d d7 38 c9 bd e3 13 cc bd
       -0.019128082 0.08569518 -0.098252945 -0.099647306
000230 58 ce 92 3d 0b 11 53 bc 48 38 64 bb 77 1f ff 3d
       0.07168263 -0.012882481 -0.0034823585 0.12457173
000240 7d 1d 85 bd 19 90 fe bd bc e8 53 bd 17 a3 3a bc
       -0.06499765 -0.12429828 -0.051735625 -0.011391423
000250 f8 57 70 bc 1f d5 57 bd f8 00 15 3e 47 20 1e be
       -0.014669411 -0.052693482 0.14551151 -0.15442
000260 ac bb 1a bd 30 d9 98 bd 15 e7 1a 3e e8 0b 71 3e
       -0.037776634 -0.074633 0.15127213 0.23539698
000270 f3 4a 8a bd 94 da 60 bd 32 a2 2d 3e b5 d3 db bd
       -0.06752577 -0.054895952 0.16956404 -0.10733739
000280 7b 41 c1 3c 12 42 17 3e 9b ae 9c bd 3f 0a da 3d
       0.023590794 0.14771298 -0.07650491 0.106464855
000290 b4 f0 40 be 95 75 ad bd e0 0e 44 3a e8 a7 32 3a
       -0.18841821 -0.084696926 0.0007479023 0.0006815181
0002a0 70 86 db bd b9 37 c7 bc 9c 07 b8 3d a8 c1 54 3e
       -0.10719001 -0.024318563 0.089858264 0.20776999
0002b0 92 cd 31 3e bb 40 dd 3d 3c 5c 34 be 97 69 bf bc
       0.17363575 0.10803362 -0.1761331 -0.023365779
0002c0 65 76 13 3e f2 06 81 bd 9a 03 16 bd 6f 5b 80 3e
       0.14400633 -0.06300153 -0.03662453 0.25069758
0002d0 55 c4 c1 3d 90 9a c3 3b 81 01 3b 3e b9 7c 1b 3d
       0.094612755 0.005969353 0.18262292 0.03796074
0002e0 4d 0b 10 be 17 3b 0d 3d 82 2d bb 3c 01 93 1b be
       -0.14066811 0.03448018 0.022848848 -0.15192796
0002f0 ad 43 00 3d 67 ac 3b 3e ce f5 15 3e d6 6f 40 3e
       0.03131454 0.18327485 0.14644548 0.18792662
000300 3b af d2 bd 0a 88 ab 3d 21 9f bc 3d fa 91 0b 3e
       -0.10287329 0.08375557 0.09210039 0.13629904
000310 fa 22 29 be ab 4f 49 be 30 46 01 bd 9c 23 aa 3d
       -0.16517249 -0.19659297 -0.031561077 0.08307573
000320 e8 64 31 3d 40 6f 3c bc 6d 02 05 be b8 2e 92 bc
       0.043309122 -0.011501133 -0.12989207 -0.017844543
000330 e5 83 2b be 50 3f 9e 3d 79 41 ed 3d 13 b7 15 3e
       -0.16749533 0.0772692 0.115847535 0.14620619
000340 00 f7 9f bd 00 7f 95 3d d1 bf e3 bd 46 0d 59 3e
       -0.078107834 0.07299614 -0.111205705 0.2119647
000350 9c 7c 66 3e 4f f6 89 3d d8 53 73 3e cb 0c 77 bd
       0.22508472 0.06736433 0.23762453 -0.060314935
000360 9c b1 dd 3d 95 ea 0f be 13 d9 cc 3d 90 55 6c 3d
       0.10824892 -0.1405433 0.10002341 0.057698786
000370 40 1d 7c 3e 9a b8 cb 3d e7 12 37 3c dd eb 82 3d
       0.24620533 0.09947319 0.01117394 0.063926436
000380 50 88 e8 bc 76 86 66 bd 04 97 91 3e 22 f4 5a bd
       -0.028385311 -0.056280576 0.28435528 -0.05345548
000390 c4 c7 3d 3c c9 c6 1b 3e 1e 52 c6 3d e6 86 9a 3c
       0.011583272 0.1521255 0.09683631 0.018863153
0003a0 e7 20 8f 3d 9f c4 61 3e ca 7d d9 bd 20 04 63 bb
       0.069886975 0.22047661 -0.106196955 -0.003463991
0003b0 09 a4 2a bc a7 3a f9 bd 29 52 ac bd 3b 40 77 bd
       -0.010415086 -0.1216939 -0.08414108 -0.06036399
0003c0 be f8 c9 3d ba ff 9c bd bb 14 fb bd ba a8 72 bd
       0.09861897 -0.076659635 -0.122598134 -0.05924294
0003d0 22 0c 8f 3c ad 13 e0 3c e0 02 19 3e d8 3d b0 bd
       0.01746184 0.027353132 0.14942503 -0.08605546
0003e0 dc 65 f6 3c 40 7d f0 bc c7 8c 06 bd f7 a5 c0 3c
       0.030077867 -0.029356599 -0.0328491 0.023516638
0003f0 af 5d f9 3b bf e8 2d be 16 13 05 3e 4b 88 58 3e
       0.007610045 -0.16983317 0.12995562 0.21145742

sequential/dense/BiasAdd/ReadVariableOp:0 f4 [128]
000000 60 67 59 bc bb a5 30 3e 39 73 7c 3e bf 53 01 3e
       -0.013269275 0.17250721 0.24653329 0.12629603
000010 1b a3 00 be 23 45 b4 3d ef e2 4d be e4 95 b3 3a
       -0.1256222 0.08802249 -0.201061 0.0013701287
000020 fb 85 83 3d 5c 67 54 3e 6a 18 de 3d e8 4e ea bb
       0.06422039 0.20742553 0.108445 -0.0071505196
000030 ea 10 e7 3d 42 3b 47 3d 14 6a 58 3e cf 31 1a 3e
       0.11282523 0.048640497 0.21134216 0.15058063
000040 c2 ca 81 3d 1f 94 15 3d 4c f4 85 bd 23 5f 57 3d
       0.06337501 0.036518212 -0.065407366 0.052580964
000050 57 87 f5 3d a2 5a 51 3e 5b 04 03 3a 13 95 15 3e
       0.11988705 0.2044473 0.00049979024 0.14607649
000060 3e 45 74 bb bc 2b 09 3d 86 fb bc bc af 7a 2c ba
       -0.0037272717 0.033488974 -0.023069154 -0.00065795606
000070 53 84 25 3d a0 56 cf bb 7c 6d 52 3e 68 4a 94 3d
       0.040409397 -0.006327465 0.20549577 0.07240754
000080 3d 34 07 3e 34 d5 34 bb a1 a2 2c be 43 11 97 be
       0.13203521 -0.00275929 -0.16858913 -0.29505357
000090 95 ba af 39 64 bc bf 3d 49 d1 2e 3e 16 6c 58 3d
       0.00033517616 0.093621045 0.17072023 0.052837454
0000a0 cb 4f 2a bc 24 08 ba 3d 43 e7 ad 3c ff 1b 1e 3a
       -0.010395001 0.09083584 0.021228438 0.00060313934
0000b0 63 43 a3 3d f4 37 e6 3d 94 ea d9 bc 84 4d 0b 3c
       0.07971837 0.11241141 -0.026601113 0.008502368
0000c0 37 ba 3c bb 7c 0f 64 bd 03 85 50 3d 10 c2 28 bc
       -0.0028797516 -0.05567883 0.0509081 -0.010300174
0000d0 fe 70 40 3e 4f 75 fe 3c 47 02 97 3b 90 44 47 bc
       0.18793103 0.031061796 0.004608426 -0.012162343
0000e0 a5 c4 b3 bb 3d 1f c1 3d c6 fb 3e be ed 47 e6 bd
       -0.0054860883 0.09429786 -0.18650731 -0.112441875
0000f0 59 93 c2 be f1 af a9 bd 23 4f a5 3d d7 6a 23 3e
       -0.38003042 -0.08285511 0.08071735 0.15958725
000100 f1 7c 15 3e 66 5a 39 3d da 74 12 bc da 90 2b bd
       0.14598443 0.045252226 -0.008938992 -0.041886188
000110 6e 73 89 bc fc b8 21 bc a4 28 04 3e 00 27 97 bb
       -0.016778674 -0.009870764 0.12906128 -0.0046128035
000120 5c f3 a5 bd 96 a2 4a bc 1a 34 04 3e 5a a2 fc 3d
       -0.08103058 -0.012367865 0.129105 0.123356536
000130 90 5f 08 3e 52 c8 de bb 1d c8 27 3e a7 4b 95 3c
       0.13317704 -0.0067987824 0.16384931 0.01822455
000140 2e ae ca 3d 9e ea 00 3d af fa 69 bd 57 41 86 3e
       0.098965034 0.03147375 -0.057123836 0.26221725
000150 e4 0a e4 3b 53 93 34 3b f1 1f 0c be c2 48 05 3e
       0.006959306 0.0027553632 -0.1368406 0.13016036
000160 4a 86 4f be 42 f7 cd 3d 51 14 db 3d 8b 4b b9 bb
       -0.20266071 0.10056926 0.106972344 -0.0056547574
000170 89 ee 37 3e 87 ad de bb b4 41 c6 3c 21 36 5f 3d
       0.17962088 -0.0067955884 0.024201252 0.05449498
000180 b3 5b 8d bc 76 9d 40 3e 4f bd 19 3e 74 81 cc bb
       -0.01725564 0.18810067 0.15013622 -0.006241018
000190 55 ec 22 3e a6 3b 77 3c 2f 1e 92 be 1b 7b 4a 3e
       0.15910466 0.015089905 -0.28538653 0.19773524
0001a0 3f 47 31 bd e5 26 25 3e f2 e3 35 3e d0 93 17 3d
       -0.043280836 0.16128118 0.17762735 0.0370062
0001b0 b7 bb 06 be 3c 0e 61 3e 55 79 58 3b e4 1a 56 3c
       -0.13157545 0.21978086 0.0033031304 0.013067935
0001c0 db e3 83 3e a6 03 15 3b 5e d2 ed bd e1 25 8b bc
       0.25759777 0.002273777 -0.1161239 -0.016985836
0001d0 db b6 44 3e 1a 30 88 3c 9a 7d 29 3e 07 b0 44 3e
       0.19210379 0.0166245 0.1655182 0.19207774
0001e0 c2 72 2a bc 28 0a 72 bd 1c 08 0a 3e 9f 61 0f 3e
       -0.010403337 -0.059091717 0.13479656 0.14002083
0001f0 4d 23 3b 3e 57 cf af bb ef 57 c0 3c 83 56 a8 3c
       0.18275185 -0.005365293 0.02347943 0.020549065

sequential/conv2d_2/Conv2D/ReadVariableOp:0 f4 [48, 48, 5, 5]
000000 ea cb 13 3d 3a 0c 2e be 61 60 db bd 4a ae 5f 3b
       0.03608314 -0.16996852 -0.10711742 0.0034130984
000010 e4 26 95 bd c4 7f ba bd 55 08 cb bd 01 26 fa bd
       -0.072828084 -0.091064006 -0.099136986 -0.1221428
000020 f0 29 9c bd 5d 5d 5f be 23 83 b8 bc 1d 0d a7 bd
       -0.076251864 -0.21812959 -0.022523468 -0.08156798
000030 c1 33 f0 bd f5 a2 13 be 1b 17 32 be b5 f0 2f 3d
       -0.11728621 -0.14417632 -0.17391627 0.042954165
000040 3f 42 1a 3c 0a 54 90 bd 68 9c 05 3d 05 e1 ef bd
       0.009415208 -0.07047279 0.032619864 -0.11712841
000050 90 f1 03 3c 82 da e6 3d fd 0e e9 bd e6 93 a4 bd
       0.008053198 0.11272146 -0.11379812 -0.08036022
000060 07 9c 1d bc 46 c4 a4 3c 94 a4 36 bd 2f e7 8f bc
       -0.009619719 0.020113122 -0.044590548 -0.017566292
000070 52 20 e8 bd 0e ec 09 bd bf e9 5b bd 06 7f bb 3d
       -0.113342896 -0.033672385 -0.053689715 0.09155087
000080 8d f8 cf bd f3 77 68 be fd 70 3e bd ff 8f a5 bd
       -0.10154829 -0.22702007 -0.046494473 -0.08084106
000090 20 4f b2 3d b7 64 68 bd 3f 4e 05 be 08 5f 7c bd
       0.08706498 -0.056736674 -0.1301813 -0.061614066
0000a0 71 61 dd bc 4a 5b 93 bd ac 92 89 bd 06 85 1b bd
       -0.027024003 -0.071951464 -0.067174286 -0.037968658
0000b0 29 83 6b bd f4 45 02 bd 35 3f 6a bd 81 e1 0a be
       -0.05749813 -0.031804994 -0.057189185 -0.13562585
0000c0 e6 03 29 bc 4e 75 a4 bd 36 80 dd bc 0c fc a5 3d
       -0.010315871 -0.080301866 -0.027038675 0.08104715
0000d0 dd b9 da 3d 4d e2 7d 3d 17 31 d4 3b 1a a0 1e bd
       0.10679982 0.061983395 0.0064755785 -0.038726903
0000e0 09 b1 70 bc 71 27 9a 3d ca ff e5 bb 2d f2 fa bc
       -0.014690646 0.07527054 -0.007019018 -0.030633057
0000f0 d8 31 00 be 53 f0 cf bb af bf 37 3d ca a8 4c 3d
       -0.12519014 -0.0063457876 0.044860538 0.049965657
000100 56 f4 b4 3c b5 44 01 bc db ef 81 bc de 9e 4e 3d
       0.022089165 -0.007889916 -0.015861442 0.050444476
000110 fb 64 83 3b 2a 60 34 bc 87 f0 e3 bd f2 49 88 bc
       0.0040098405 -0.011009255 -0.11129861 -0.016636822
000120 56 79 06 bd f8 14 1c bc 00 a5 b5 3c d0 53 e4 bd
       -0.03283056 -0.009526484 0.022173405 -0.111487985
000130 16 f1 c7 bd ed c1 cd bd c6 78 67 bd 90 15 d2 bc
       -0.0976278 -0.10046754 -0.056511663 -0.025645047
000140 88 39 c3 bd ea 7c 21 be 5f c4 83 bd fa a4 11 be
       -0.095324576 -0.15770307 -0.06433939 -0.1422309
000150 3e 39 dd bd ce 79 b7 bc 0b 6f 45 be 90 e7 f1 bc
       -0.10801934 -0.022396948 -0.19280641 -0.029529363
000160 d8 12 be bd 51 a6 85 bd 25 ba 10 bd 57 7d 28 be
       -0.09280938 -0.06525863 -0.03533377 -0.16454063
000170 c9 33 28 be e5 fc fc bd dd aa ba bd ee 37 b7 bd
       -0.16426004 -0.12352923 -0.09114621 -0.089462146
000180 5a 3c 29 be 3a f4 5b be 95 b8 12 be 2f a6 27 be
       -0.16526929 -0.21479884 -0.14328225 -0.16371988
000190 a0 49 87 bd e7 bf 51 3c f8 f7 41 3e 42 c4 65 3d
       -0.0660584 0.012802101 0.18942249 0.05609537
0001a0 a0 0f 04 3b ae 73 5e bd 06 dd a2 3d 26 6b b9 3d
       0.0020150915 -0.05430954 0.07952313 0.0905364
0001b0 1d 30 54 3c 52 63 ec 3c 8d d6 1b 3c 89 df f9 3d
       0.012950924 0.028855953 0.009511602 0.12200839
0001c0 d5 13 23 3d ca 9e bb 3d 05 17 10 3d 56 76 ac 3d
       0.039813835 0.09161146 0.035178203 0.08421008
0001d0 8b cf c8 3d ba 07 f8 3d 9f 87 ae 3b 25 ac 62 bd
       0.09805211 0.12110849 0.005326226 -0.05533995
0001e0 a3 20 c2 3c 6a d3 89 3d 6b be 80 3d 07 ae 08 be
       0.023697203 0.06729777 0.06286319 -0.13347636
0001f0 bb 22 8e bd 2e 15 54 3c c7 64 11 bd 55 1f 46 bc
       -0.06940218 0.012944503 -0.0354965 -0.012092431
000200 22 40 1f 3d 34 24 71 3d cd 74 6c bc e0 13 8b 3d
       0.03887952 0.058872417 -0.014432144 0.067909
000210 63 76 06 3e 43 e5 02 3e 34 d8 2a bc 56 e7 e3 bd
       0.13131098 0.12782769 -0.010427523 -0.11128108
000220 6c 8f 83 3d e0 4f 59 3e ba e6 3b 3e 92 35 2e 3d
       0.0642384 0.21221876 0.18349734 0.042531557
000230 4c 71 8f bd b2 77 94 3d 95 17 3d 3e 1f 8d 34 3e
       -0.070040315 0.072493926 0.18466027 0.17631958
000240 85 c9 69 3d fb 4f 01 be 2a 3f f9 3b d1 eb e1 3d
       0.05707695 -0.12628166 0.0076064067 0.110313065
000250 06 31 e0 3d f5 3c 46 3d 6a ee c2 3d 31 73 e7 3d
       0.109468505 0.048397977 0.0951813 0.11301268
000260 0a 4a 80 3c 82 9e 17 3d 0f 78 d4 3c 74 ad 91 bd
       0.015660305 0.0370164 0.025936155 -0.07113162
000270 8b ff 0c 3d f0 d2 38 bb 30 f1 fe 3c 8f 4e 33 bd
       0.034423392 -0.00282019 0.031120867 -0.04377609
000280 c5 c2 78 bd 5b c5 44 bd cc 2b a7 3d 60 de b6 3d
       -0.06073262 -0.048039775 0.081626505 0.089291334
000290 07 7a a4 bd a5 81 14 3d ec 4c ea bd 8c 7c e9 3d
       -0.08031087 0.03625645 -0.11440453 0.114007086
0002a0 13 44 25 3e 38 b3 01 3e f7 ed 15 bd 1a 01 36 bd
       0.1613925 0.12666023 -0.036603894 -0.044434644
0002b0 b1 37 de bd 78 47 4d bc 56 c2 73 bc 16 5a b1 bd
       -0.10850466 -0.0125292465 -0.014877876 -0.08659761
0002c0 16 32 0b 3d 45 74 9f bd b7 90 d0 bd 05 1b 94 bd
       0.033983313 -0.077858485 -0.10183852 -0.07231716
0002d0 25 e1 16 be 29 ff c0 bd 6e b9 48 bd 05 cc a4 bd
       -0.14734323 -0.09423668 -0.049004965 -0.08046726
0002e0 20 ba 68 bd a2 d5 55 bd da d1 80 bd 08 5e f9 bd
       -0.056818128 -0.05220569 -0.06290026 -0.12176138
0002f0 d8 8b 48 be de d1 11 bd 04 9c 09 3d 31 42 e7 3b
       -0.19584596 -0.035600536 0.033596054 0.007057451
000300 29 9a 35 bd be 4a 97 bd 2b 78 10 be 9b 2d 32 3d
       -0.04433647 -0.07387303 -0.1410834 0.043500524
000310 8b b1 35 3b 99 82 9b bc f1 2f db bd c4 56 54 bd
       0.0027724232 -0.018983172 -0.107025035 -0.05184056
000320 8e 75 50 bc ee 92 79 bc 24 f2 41 3d 6b 09 9f 3d
       -0.01272334 -0.015232785 0.047350064 0.07765468
000330 25 15 af 3d 54 4d 88 bd 45 a5 c0 3c 8e a3 04 3e
       0.08548955 -0.06655374 0.023516307 0.12953016
000340 71 38 0c 3e d0 1d ec 3b 93 44 a8 bd 43 3d 67 3a
       0.13693406 0.0072057024 -0.082162045 0.00088210794
000350 ec e7 81 3d b5 0b 79 3c ae 73 cb bc 6d df 79 bd
       0.06343064 0.015200545 -0.024835434 -0.06100409
000360 f1 eb 92 3d c8 8b aa 3d bc 93 23 3d 5b 7a d3 bb
       0.071739085 0.083274424 0.039935812 -0.006453795
000370 16 aa d5 bc 74 5f 33 3e e2 56 3e 3e 25 36 f9 3d
       -0.02608208 0.17516881 0.1858783 0.121685304
000380 c9 ec 1d 3d d0 34 e2 3d a8 ac bf bb 12 9e 65 3d
       0.038555894 0.110452294 -0.0058494397 0.05605895
000390 4d cb ac 3c df d1 1f ba 7a 20 24 3e 53 d0 65 3d
       0.021093035 -0.0006096642 0.16028014 0.056106877
0003a0 61 c6 89 3d ab dd 3b 3e 60 2c 4c 3d 8b d8 3b 3d
       0.06727291 0.18346278 0.049847007 0.04586081
0003b0 f5 10 25 3e 4a 60 31 3e 2b 39 37 3c 0a 3c 10 bd
       0.1611975 0.17321888 0.0111830635 -0.035213508
0003c0 c1 79 b8 bd e3 3f 34 3d 3d 7a 2c 3e 89 a3 c7 3d
       -0.09007598 0.04400624 0.16843505 0.09747989
0003d0 72 85 b2 bd 4f f8 fb bd f9 68 9d 3d 3e be 10 3e
       -0.08716859 -0.123032205 0.076860376 0.14135072
0003e0 42 9f b8 3d 28 18 a8 3d 0f 30 23 be 50 9a 22 bd
       0.09014751 0.082077324 -0.15936302 -0.039697945
0003f0 98 d0 7b 3d 0b 8d 77 bd f0 b0 80 bd a7 b7 bc 3c
       0.061478227 -0.060437243 -0.06283748 0.023036791

sequential/conv2d_2/BiasAdd/ReadVariableOp:0 f4 [48]
000000 55 d6 99 3d a7 29 a7 bd 22 21 c9 3d 33 42 6f bd
       0.07511584 -0.081622414 0.09820773 -0.058412742
000010 7d 7b 3f 3e ef d2 0c 3e 56 6d 93 3b 1d 48 8a bd
       0.18699451 0.1375234 0.004499118 -0.06752036
000020 31 8b d2 3c 04 99 e4 bd 2a d6 10 3e e5 9f 4e 3d
       0.025701137 -0.11161998 0.14144197 0.050445456
000030 7d fe 15 3e 94 f2 81 bd 0c f1 c7 bd 2c a0 fe bc
       0.14647861 -0.06345096 -0.09762773 -0.031082235
000040 5b f2 2d 3d e1 77 5d bd e4 0c b6 3c b3 d5 9a 3d
       0.042467456 -0.054069404 0.022222944 0.07560291
000050 70 66 4c 3c 5c 30 00 3e 8e c6 66 3d 40 e7 9b bd
       0.012475595 0.12518448 0.0563417 -0.07612467
000060 80 26 24 3e 70 a8 1e 3e cb 60 3c 3c 9c 97 27 3e
       0.16030312 0.15493941 0.011497687 0.16366428
000070 3c e0 96 bd 48 b8 cc 3d 49 5d d8 bc 19 aa eb 3c
       -0.07366988 0.09996086 -0.02641167 0.028767632
000080 62 25 0c bd 4e 04 c3 3c 9f e5 bf 3c d5 15 91 bd
       -0.03421534 0.023805764 0.023424922 -0.07084242
000090 4b ba 56 3d ab 10 31 bd 33 56 42 bc 3c 0c b4 bd
       0.052423757 -0.043228786 -0.011861372 -0.08791396
0000a0 3c ce 64 bc 6d 29 73 bd ea a3 9b 3d a7 73 ba 3b
       -0.013965186 -0.05936568 0.075996235 0.0056900564
0000b0 71 6d 87 3c 9e 5b b5 3c 2e a0 d6 bc f6 b9 63 3c
       0.016531678 0.022138413 -0.026199427 0.013899317

sequential/conv2d_1/Conv2D/ReadVariableOp:0 f4 [48, 32, 5, 5]
000000 6c f0 15 be f8 69 0b be fb 19 43 be 51 51 68 be
       -0.14642495 -0.13614643 -0.1905288 -0.2268727
000010 1d 1d 51 be 79 3b f4 bd 6e b9 bd 3c 44 73 b1 3c
       -0.20421262 -0.11925406 0.023159709 0.021661408
000020 0b c9 17 bd a9 d2 9d bd 36 fc 31 bd 75 39 c8 3b
       -0.037056964 -0.07706196 -0.043453418 0.006110365
000030 3d 39 a1 3d 7b 9c d6 3c fd 1c 71 bc 3a f7 7d bb
       0.078722455 0.026197663 -0.014716384 -0.0038752095
000040 86 b0 22 bd 44 bb 99 bd 06 24 28 bd 0f 75 d7 bc
       -0.039719127 -0.07506421 -0.04104998 -0.026300935
000050 61 2b 15 3d d3 b7 a4 3d 37 a3 27 3d 1b a3 46 bd
       0.036418322 0.08042874 0.04092714 -0.048495393
000060 11 75 5f bb 4e 09 21 ba 19 26 d5 bd 19 e6 9a bd
       -0.0034096877 -0.0006143049 -0.10407657 -0.07563419
000070 30 76 65 bd 1c af ab bd 8c 93 f8 3a 54 69 79 bd
       -0.056020916 -0.08383009 0.0018964871 -0.060891464
000080 db 49 bd bd 05 6d d5 ba f4 cb c1 bc 4f 00 f5 bc
       -0.092426024 -0.0016283101 -0.023656823 -0.029907374
000090 f6 63 e6 3d 25 ff 1a bc ba 2f af bc 8d 3e 9f 3c
       0.11249535 -0.009460245 -0.021385062 0.019439006
0000a0 ea a4 db bd b7 99 b0 3d 0e ce 0a 3e 5b bb 5f 3d
       -0.10724814 0.08623069 0.13555166 0.054622035
0000b0 47 b8 59 3b 68 88 43 be 8c f4 84 bd 1b 57 b1 3d
       0.003322141 -0.19095004 -0.06491956 0.08659192
0000c0 01 47 87 3d 12 2d 72 bd 7f 8e 63 3d 9f 9a 89 3d
       0.0660534 -0.059125014 0.055555817 0.06718945
0000d0 82 e9 3a bd f8 e7 8d bd 6b 5a db 3d 66 56 94 bd
       -0.045632847 -0.0692901 0.10710605 -0.07243042
0000e0 13 3d 9f bd 83 92 ac 3c 82 7a 2f bd 36 f1 b1 bd
       -0.07775321 0.021065956 -0.042841442 -0.086885855
0000f0 76 34 d8 3b 35 b3 a1 bc 9a 60 46 3d a7 d1 3e bb
       0.0065980507 -0.019738773 0.04843197 -0.0029116662
000100 2a d3 47 bd 26 bb 0f 3e d7 5d 5a 3d 6e b2 3a 3d
       -0.048785366 0.14036235 0.05331215 0.04558032
000110 ea 2d 0e 3d 7b 40 d3 bc a0 f7 b9 bc c1 49 0d 3d
       0.034711756 -0.025787583 -0.022701085 0.034494165
000120 ce a2 e4 3b bb 06 f0 bc 63 cd 4e 3d e3 d4 e5 bd
       0.0069774156 -0.029300084 0.05048884 -0.112222455
000130 90 ea 45 bd 01 09 a4 3c 3b 61 6e 3d 0e b7 a5 3d
       -0.0483194 0.020023825 0.058198195 0.080915555
000140 2f 82 9b bd ed ec 8a bc fa 18 a8 39 10 43 bc 3d
       -0.0759319 -0.016958678 0.00032062066 0.09192479
000150 47 f4 18 3d 3c 20 12 3d 08 42 0e 3c d7 43 f2 3c
       0.037342336 0.035675272 0.008682735 0.029573364
000160 a4 0e a6 3d bc 47 e2 3d b5 5e 71 3c 4b c5 f0 3d
       0.08108261 0.110488385 0.014732053 0.11756381
000170 f5 df 02 3e 2d b8 eb 3d 24 40 32 3e 59 e6 9d bc
       0.12780745 0.11509738 0.1740728 -0.019274877
000180 0a 0c 27 3d 9a da f6 3d 73 ce ff 3d ac 63 c9 3d
       0.040782966 0.12053414 0.12490549 0.09833464
000190 e6 69 b0 bc 70 91 05 bc 7e 4f 8f 3c e5 e3 7f bd
       -0.021534871 -0.008152351 0.01749396 -0.062473197
0001a0 51 e7 b7 3c d0 ee 42 bc 5e 4a 35 ba 8a b7 c1 bb
       0.022449167 -0.011897758 -0.00069156836 -0.005911772
0001b0 87 3a 52 3d 82 20 75 bd 36 22 0e 3b c4 e6 34 bc
       0.051325347 -0.059845455 0.0021687872 -0.011041347
0001c0 b1 82 53 bd b1 23 80 bc 22 de 18 bd 79 52 5a 3c
       -0.05163831 -0.015642019 -0.037321217 0.013325327
0001d0 c4 74 b3 bc 48 e7 b3 3c 58 d5 1e bd bf e1 47 bd
       -0.021906264 0.02196087 -0.03877768 -0.048799273
0001e0 aa c2 26 bd 02 7a 84 3c ac f1 23 3c 12 ab 51 bd
       -0.04071299 0.01617146 0.0100063495 -0.051188536
0001f0 82 ef 9b bc 3e d5 a3 3d 35 1f 1b 3e 23 4d 34 3d
       -0.019035105 0.07999657 0.15148623 0.044018876
000200 17 e4 75 3d df 0d aa 3d 66 bc ea 3c 39 05 46 3d
       0.060031977 0.08303427 0.028654289 0.048344824
000210 cc 89 8a bd 8e db 88 bd b6 4b b1 bd 1d fe d2 bd
       -0.06764564 -0.06682502 -0.08657019 -0.103023745
000220 41 da 11 bb d8 64 bb 3b 36 02 2b bd 85 3f e4 bd
       -0.0022255334 0.0057188086 -0.041750155 -0.11144928
000230 a6 51 d9 bd 09 c0 6a bd ae af 3d bd c9 1b 41 bc
       -0.10611276 -0.057312045 -0.04631012 -0.01178641
000240 79 41 18 bd b7 d4 71 3c 71 39 de bc 82 1d f2 bd
       -0.037171815 0.014760188 -0.027127 -0.118220344
000250 62 3f e7 ba 24 66 b1 3d af 42 dc bd 1d 49 c8 bd
       -0.0017642791 0.0866206 -0.107549064 -0.0977957
000260 0e 0c 56 bd 77 b1 05 be 5d 80 c5 bd d9 b4 b3 bc
       -0.05225759 -0.13055979 -0.09643624 -0.02193682
000270 44 fa f5 3c 81 b7 57 3d 4c 64 24 3d e7 56 97 3d
       0.030026563 0.052665237 0.040134713 0.07389622
000280 d2 9f 36 be 4d 93 02 be ea ae 9d 3c 06 ce a8 3c
       -0.17834404 -0.12751503 0.019248445 0.020606052
000290 3b 66 6e bd b6 0d 82 bd b7 1c 93 3d 1a 4d 4f 3d
       -0.058202963 -0.063502714 0.07183211 0.05061064
0002a0 91 72 ac 3c 05 fb a0 3b aa 64 d9 3d 72 05 ad 3d
       0.021050723 0.0049127364 0.10614903 0.08448304
0002b0 a1 ba 1f 3e 0e 59 fa 3d 00 05 88 bd 94 aa 1b bd
       0.15598537 0.12224017 -0.06641579 -0.038004473
0002c0 8e 7b 0a 3d 62 b1 1e bd 0c 97 74 bd 05 b6 0e bc
       0.033809237 -0.038743384 -0.059714362 -0.008710389
0002d0 5c 8f a6 3c 9b f3 ca bd 12 75 e1 bd 32 aa 16 3c
       0.020332031 -0.09909745 -0.110086575 0.009195851
0002e0 6d 11 8b bd 4f 46 a1 bd 02 b3 96 bc 94 a4 00 3d
       -0.06790433 -0.078747384 -0.018395904 0.031406954
0002f0 8b 37 41 3b 3d 9c 21 3c 64 f3 56 bd 70 02 d6 3c
       0.002948257 0.00986391 -0.05247821 0.02612421
000300 2c 09 bb bc 47 a1 2e 3d a2 b9 28 bd 2b ed 85 3d
       -0.022831522 0.042634275 -0.04119266 0.06539377
000310 7f e2 80 3d 75 d8 b8 3d a3 f4 30 3d 80 4e 83 bc
       0.06293201 0.09025661 0.043202054 -0.016028643
000320 e9 54 54 bd 15 90 1d bd 33 48 e5 bd 51 29 1b bc
       -0.05183879 -0.038467485 -0.111954115 -0.0094703
000330 7d f6 49 bd 9c 35 6c bd e2 35 77 bc 7e 26 fc bc
       -0.049307335 -0.057668313 -0.01508853 -0.030780073
000340 1a a6 dd bd 80 2d 8c bd b4 be c1 3c b4 cf cc bd
       -0.10822697 -0.06844616 0.023650505 -0.10000554
000350 ab a3 b7 bd 87 ce 83 bc 04 17 3a bd 41 14 d9 bb
       -0.08966764 -0.01608969 -0.045432106 -0.006624729
000360 6f 70 88 3c 2d 6c b6 bc 72 1c 97 bc 76 ce fa bb
       0.016655175 -0.02226838 -0.018446181 -0.0076540066
000370 05 b3 71 3d 14 22 18 3e ba b6 41 3e 58 28 96 3d
       0.059008617 0.1485675 0.18917361 0.07331914
000380 b8 8e 0f 3e e4 c6 3c be 42 15 13 be 14 20 2b be
       0.14019287 -0.18435246 -0.14363578 -0.16711456
000390 b6 f5 69 be 51 06 a3 be 90 8b e1 bd 8e e8 b7 bc
       -0.22847638 -0.31840757 -0.110129476 -0.022449758
0003a0 0b 60 a6 3d 83 f6 91 3b fa 30 3f bd 84 04 54 bd
       0.081237875 0.0044544353 -0.046677567 -0.05176212
0003b0 0d 6b ec bb 05 f2 da 3d 50 54 a7 3d 26 7c 43 bc
       -0.00721491 0.10690693 0.08170378 -0.011931455
0003c0 60 51 ae bd a7 35 f0 bd 3f 33 2f bd 76 6d 58 bd
       -0.08511615 -0.11728983 -0.04277348 -0.052838765
0003d0 41 88 92 3c 7e b3 ab 3b ed 12 e6 3d 63 39 24 3c
       0.017887237 0.005239903 0.112340786 0.010023448
0003e0 b5 d5 ca bc 78 76 3a bc 28 1d 77 bd 7c ed 00 be
       -0.024760107 -0.011380784 -0.06033054 -0.12590593
0003f0 1c 3d 1b bd b7 16 eb bc 04 3a 08 3d 93 46 16 bc
       -0.037900075 -0.028697355 0.033258453 -0.0091721

sequential/conv2d_1/BiasAdd/ReadVariableOp:0 f4 [48]
000000 db 7e 46 bd 7e 2d 01 3d 74 80 87 bd 26 64 e3 3c
       -0.048460823 0.031537525 -0.06616297 0.027757715
000010 75 d8 44 bd 3a 1f 2e 3c 33 f6 13 bd ad 0e b6 3d
       -0.048057992 0.010627562 -0.036123466 0.08889518
000020 70 e2 52 bc 3b b5 82 bd 89 a0 bd bb c8 66 e7 bc
       -0.01287137 -0.06382223 -0.0057869595 -0.028247252
000030 14 fc 84 bd da 9f ef 3c 07 49 90 bd 30 2e dc 3c
       -0.064933926 0.029251028 -0.07045179 0.026877493
000040 eb e2 98 3c e5 ed 57 bd f3 15 1e 3d b8 1b 2f bc
       0.01866289 -0.05271711 0.03859515 -0.010687761
000050 a4 ed 7d 3c 92 9c 81 bd c1 38 bf bc d1 54 74 bd
       0.0154985525 -0.063286915 -0.023342492 -0.0596512
000060 bf d4 d5 3c 0b 0d 25 bd 4f 96 a3 3b a9 40 74 3d
       0.026102422 -0.040295642 0.0049922834 0.059631977
000070 e2 11 09 bc bf 67 b2 3d 21 29 3e bc 94 75 df 3c
       -0.00836608 0.08711194 -0.011606486 0.027277745
000080 79 64 28 3b 15 85 7d 3d 49 25 12 bd 34 56 fa bc
       0.0025694652 0.061894495 -0.03568009 -0.030558683
000090 6c 75 57 bd 7f cf a8 3d e0 d8 9c 3d 57 08 80 bd
       -0.052602217 0.08242702 0.07658553 -0.06251591
0000a0 39 1b 68 3d 51 63 b3 3c e8 04 1b 3d ca 8d 63 3d
       0.056666587 0.021897944 0.037846476 0.055555142
0000b0 1f a2 9e bc 46 d0 70 3d 59 e3 af 3c 22 dd 73 3c
       -0.019364415 0.058792375 0.021470712 0.014884265
